data.pth (torch, 11882 bytes, 6 tensors)

l1.weight f4 [8, 181]
00000000: 9485 0d3f 4272 043f c1af 913e 91a1 8fbe
00000010: 7bcc b0be d11e 3f3f 2296 a33d 1875 693e
00000020: 9aa7 513f b8d6 21be e3c8 263f d34e 0a3f
00000030: 3ae3 c33e f3b4 ca3d b1b4 bbbe eec5 8a3f
00000040: 38ff 913f 6d6a d13e 11c1 d23e c15f 58bc
00000050: 3e0b 313e 1a66 113f b5fe 8bbd 0bda fa3e
00000060: 9945 5cbf b0d6 bb3c 3824 71bf 7ebc 08bf
00000070: 4eeb 43bc fc16 33bf b557 693f 1ff1 a03c
00000080: dc3d 1abf 3613 c2bf 80ae 2dbf 67fe 9fbd
00000090: 97cd 8fbe 5bbf a8be a4cd 00bf b939 0ebf
000000a0: b880 6f3f 30ac c6be 95ec 283e ef3a a9be
000000b0: eb47 443f c807 3c3f 382d 2abf 03d8 38bb
000000c0: 0518 543e b325 103e 76bb 283f 7087 1dbe
000000d0: 72b1 ccbd 08be 1a3f c0cf af3e af92 7abf
000000e0: a450 933d 56e8 8c3f 9838 5cbf 2113 a03f
000000f0: 9974 9ebc d782 ab3f b5a1 cfbe c6f6 873e
00000100: cda0 973f 437a 963f 86f9 0e3f a4e2 be3e
00000110: d30f 383e 76cc 6bbf def3 793e ae29 963f
00000120: 0685 a6bd e35b 7b3f 3752 4a3f 80b2 b5bd
00000130: dba9 433f 54cc fa3e 1dd5 53be 25e9 d3bd
00000140: 1c81 f2be ddb3 54bf a00a bdbe e4f0 28bf
00000150: 9acf 20bf cfbd c6be 22dd 4d3f 4ea5 903e
00000160: 5dbc 3a3e ee27 17bf dd06 253f aa3a cf3d
00000170: 6f11 05bf 78da a5be f3ad 363f 35e7 333f
00000180: b558 2e3f 0174 15bd e29d 8dbd 5947 653e
00000190: 7ee5 6d3f 5e30 f93e 2720 383f c12c 1fbf
000001a0: bbfd 0b3e ab30 793e 0728 123f c335 8cbe
000001b0: 8594 23bf af5d 1abf 43dd 5bbf 787f 3e3f
000001c0: 705f eabc 7f7f fe3e 9d85 65bf d9e4 38bf
000001d0: af3a 9cbf f4ea f6be 8b26 7e3e 0917 03bc
000001e0: 7693 773f ade9 d7be 4282 56bf 374e a1be
000001f0: c4c4 02be 6b7f 7fbf 657c cb3d b318 b83f
00000200: e34a ae3f a68f ff3e 9bac 1f3e 1378 433f
00000210: 0e38 cf3d 6dcc 143c 8868 c53d a843 6f3d
00000220: 44c7 3f3f e77c a2bf a235 3c3d 38b7 f43f
00000230: 7e6c 3d3f 2bb7 8c3e f4fa fb3d 62be a93d
00000240: c60c 0a3f e315 1d3f 74f5 9cbf 4df9 f83e
00000250: 1272 62be ce48 773d 34bc 833f 6616 a7be
00000260: bbb1 a3bc ee43 dbbe 7832 7dbe ba42 643f
00000270: b24f c0bd aa36 083f 687e 733e dce6 50bf
00000280: cb62 c43d 092c 193f 4669 1c3f 59ce 8e3f
00000290: 02b7 adbe 3c1f 8f3f b755 7d3e a1d7 d43d
000002a0: b1ff 95be 16b8 81bf 43af a4be 2d44 60bd
000002b0: 63ef 59bf 9cc7 96bf 8ba8 4a3f 447e 73be
000002c0: 8d52 96be 23a7 0f3f b037 22be b562 173f
000002d0: f07f 113f 7ba5 053f fb21 8d3e deb6 e1bd
000002e0: da0e 30bd edd6 2a3e 4b97 bc3e 1297 4dbe
000002f0: 2262 6e3f 4d22 0dbf 71c6 9fbf 4d60 123f
00000300: e2fc 4b3f 8995 36be 6e82 12bf d9ad eabe
00000310: d31c 763f b36c 653f be14 10bf 6328 573f
00000320: 4c50 943f 1606 adbc 4ed6 7b3e 749a 883d
00000330: 193f 3b3f 0d65 4cbf a802 7d3e 7b65 92bd
00000340: 6977 d5be f5e4 063f 3d16 e9be 7f7f 49bf
00000350: 01e5 d83e f393 d73e 2be6 edbf 3250 cfbf
00000360: c6a1 a63f 35f3 a73f ac23 303f 044b dcbe
00000370: 5fe5 003f cce8 4bbf a662 d43f 3ce7 1f3f
00000380: 2e8d 783c c249 c53e 758b 143f 5dd7 c9bf
00000390: 5e7e c1bf 861c 1c3f 7b60 133f 0de4 00bf
000003a0: 681f 2bbc 9f58 2a3f 22e2 4c3f 0636 623d
000003b0: 39ca 2fbf 5ba5 5b3f 9dad 11bd aa56 4abf
000003c0: 9b0f bb3e 92f1 103f 2652 243e 8b94 22bf
000003d0: f00c 333f 3c7b b83e a8d0 ae3e 13f6 dbbe
000003e0: 1c56 f3bf 9398 3fbf f70c 873e ccf8 c03d
000003f0: acb1 bc3e 40e3 97be c594 233f 0193 523e
0.5528195 0.51736844 0.28454402 -0.28052953 -0.34531006 0.746564 0.0798762 0.22798574
0.81896365 -0.15804565 0.6515028 0.54026526 0.38259298 0.098977946 -0.36661294 1.0841653
1.1406012 0.4090151 0.41162923 -0.013206423 0.17289445 0.5679642 -0.06835691 0.4899448
-0.860437 0.02292952 -0.9419589 -0.53412616 -0.0119579565 -0.69956946 0.91149455 0.019646225
-0.6025064 -1.5162113 -0.6784439 -0.07812195 -0.2808654 -0.32958493 -0.5031378 -0.5555683
0.93555784 -0.38803244 0.16496499 -0.33052775 0.7667224 0.73449373 -0.6647525 -0.0028204925
0.20712288 0.14076881 0.6591104 -0.15383697 -0.099947825 0.60446215 0.34338188 -0.9788007
0.07193115 1.1008403 -0.86023855 1.2505838 -0.019342707 1.3399304 -0.4055306 0.2655546
1.1845948 1.1756061 0.5584949 0.37282288 0.17974786 -0.9210886 0.24409434 1.173147
-0.08130841 0.98187083 0.790317 -0.08871937 0.76431054 0.48984015 -0.20686765 -0.10347203
-0.47364128 -0.8308695 -0.3692217 -0.6599257 -0.62816775 -0.38816687 0.80415547 0.28251117
0.18235917 -0.590453 0.644636 0.10118611 -0.51979727 -0.3239324 0.71359175 0.7027467
0.68104106 -0.036487583 -0.069148794 0.22390498 0.929283 0.48669714 0.7192406 -0.62177664
0.13671009 0.24334972 0.57092327 -0.27384767 -0.638985 -0.602992 -0.85884494 0.7441325
-0.028609961 0.49706647 -0.89657 -0.72224194 -1.2205409 -0.4822613 0.2481939 -0.0080010975
0.9670938 -0.42170468 -0.8379251 -0.31504986 -0.12770373 -0.998038 0.09935836 1.4382538
1.3616604 0.49914283 0.15593188 0.76355094 0.101181135 0.009081942 0.096390784 0.05841413
0.7491343 -1.2694367 0.045949586 1.9118414 0.7399367 0.27483496 0.12303725 0.08288266
0.5392574 0.6136152 -1.2262406 0.486277 -0.22113827 0.060372166 1.029181 -0.32634276
-0.01998221 -0.42825264 -0.24726284 0.89164317 -0.09390201 0.5320841 0.23778689 -0.81602263
0.09589156 0.5983282 0.61098135 1.1156722 -0.33928686 1.1181407 0.24739729 0.103926904
-0.2929664 -1.0134304 -0.32164964 -0.054752517 -0.851309 -1.1779666 0.79163426 -0.23778635
-0.29359856 0.56114405 -0.15841556 0.5913499 0.5683584 0.5220563 0.27564988 -0.11021207
-0.042982914 0.1668355 0.36834177 -0.2007716 0.9311849 -0.55130464 -1.2482435 0.57178193
0.79682744 -0.1783048 -0.5723027 -0.4583576 0.9613773 0.89618987 -0.5628165 0.84046
1.1587005 -0.021121066 0.2459347 0.066700846 0.73143154 -0.7984169 0.24708045 -0.07148262
-0.41692665 0.5269311 -0.4552478 -0.7871017 0.42362216 0.42105064 -1.8585867 -1.6196349
1.3018119 1.3121096 0.6880443 -0.43025982 0.5034999 -0.79652095 1.6592605 0.6246221
0.015170379 0.38532835 0.58025295 -1.5768849 -1.5116689 0.60981023 0.5756909 -0.5034798
-0.0104445 0.66541475 0.8003255 0.055227302 -0.6866794 0.8579919 -0.03556596 -0.7903849
0.36535344 0.5661861 0.16046962 -0.6350791 0.69941616 0.3603152 0.34143567 -0.42961177
-1.9010653 -0.74842185 0.2637708 0.09422454 0.36854303 -0.29665565 0.6389888 0.2056389

l1.bias f4 [8]
00000000: 1339 5c3f cf21 4e3f f416 b23f 205f 643f
00000010: fe94 733f 86bc 873f 7ed5 873f 2d02 8f3f
0.8602459 0.8052034 1.3913255 0.8920765 0.9514922 1.0604408 1.0612028 1.1172539

l2.weight f4 [8, 8]
00000000: a199 273e 75a2 1cbf de80 e73e d083 9b3f
00000010: 40bf 8a3f 1ea5 70bf 467f 0abf e079 573e
00000020: 20d1 183d e92e 1dc0 e9a2 9e3f 25e5 8e3f
00000030: 7091 c93f a5ab 543e 1954 6040 f17f b33e
00000040: ef36 2ebf dc59 1440 7843 1c3f aa3f 3540
00000050: d5b9 88bf d5c1 9f3f 77dd 43bf db0b 0140
00000060: 3fc4 7cbe 0860 22bd be9e aebe 0038 8eba
00000070: cf01 a8be 60c7 3bbd 8887 a53d 8820 8dbd
00000080: beba 253e a635 46be e9d0 783f 2e7c 613f
00000090: 6f25 913f 6e60 74bf b5a6 82bf 6561 35be
000000a0: 76e4 273e 19a8 9cbe 9c7e 99be 6be9 a9be
000000b0: 4091 0a3c 3b45 a6be 68da 9b3d 702e a5bd
000000c0: 99d3 0240 26cf 2bbf 06cf 1340 4a18 edbf
000000d0: 9513 3d3f ceef 3040 232d a4bf da48 1940
000000e0: d5f8 4c40 3db4 3240 be1e 123f 9680 77bf
000000f0: e704 3b40 9aea 44bf a6c2 c93f fee5 a2bf
0.16367199 -0.6118539 0.45215505 1.2149601 1.0839615 -0.9400195 -0.54100454 0.21042585
0.037308812 -2.4559882 1.2393466 1.1163679 1.5747509 0.20768602 3.505133 0.3505855
-0.6805257 2.3179846 0.6104045 2.8320107 -1.0681711 1.2481028 -0.76509804 2.0163486
-0.24684237 -0.039642364 -0.34105486 -0.001085043 -0.3281388 -0.045844436 0.08082491 -0.068909705
0.16184518 -0.19356403 0.9719377 0.8808011 1.1339549 -0.9545964 -1.0207125 -0.17712934
0.16395745 -0.30596998 -0.29979408 -0.33185896 0.008457482 -0.32474694 0.07610017 -0.08065498
2.044165 -0.6711296 2.3095107 -1.8523037 0.73858005 2.7646365 -1.2826275 2.3950715
3.2026875 2.7922509 0.5707816 -0.9668058 2.9221742 -0.76920474 1.5762527 -1.2726438

l2.bias f4 [8]
00000000: 01b1 20be db95 6e3f a4cf 173f a416 94be
00000010: 8c2f fa3e a8bb 7abd 4a76 0f3f b2f0 3c3e
-0.15692522 0.9319741 0.5930121 -0.28923523 0.488644 -0.06121412 0.5603987 0.18451193

l3.weight f4 [22, 8]
00000000: c526 1ac0 104e e2bf 910c c1bd c9a1 4abe
00000010: 7351 3dc0 90fc f5bc 30b6 303f 69f1 3bbf
00000020: 1cfa 6e3e e048 aa3d ac34 10c0 12bd 323e
00000030: e339 edbd 60ec b13c e821 fcbf f625 943f
00000040: 46e4 b3bf 5154 0ac0 5c92 83bf 7230 6ebe
00000050: ca28 cc3e 4344 0ebe 5baa 923e 04a8 423f
00000060: 4617 a23c 7383 7b3f 51cb 88bf 4fe4 b13e
00000070: ca85 a5be aba5 90be bae7 27bf 8613 7ebe
00000080: fd29 043f 7bda a8be ba1c b9be 9e22 553e
00000090: 2a76 1e3f 80a6 7abd be62 303e 28f1 1ebf
000000a0: b61e 77bf 7430 3f3e 73dd ec3d 20e0 90bd
000000b0: e4d5 cebf 740e 3bbe 8d6d 48bf 1267 98bd
000000c0: 2a8c 61bf 60db 3d3f 7fe1 a4bf 2c8c 963d
000000d0: d605 20c0 86c7 683e b13d f13e 28aa a4be
000000e0: 2a68 6b3f 6c87 da3d 19d7 c13e 2056 b2bd
000000f0: 41c2 933f a917 903e 09d8 22c0 987f 3dc0
00000100: 7528 08c0 d06e af3f 02e0 463c 5863 4fbe
00000110: a739 57c0 2e9d 3c3e 3a77 83bf 83fe 07c0
00000120: 9ea5 00be cc7f c93d 16e5 f0bf 38b7 223d
00000130: 12ea 653f 5efe 253e 774a 933e f7a5 f83e
00000140: 5471 773f df5c 3a3e d6ba d5be 80f8 7d3b
00000150: 542d 253f 0139 38be 5a71 33c0 47f6 0d3e
00000160: 8dff 093f 8608 a8bf d399 2bbe 62d4 283e
00000170: d7aa ea3e 7040 0c3d 6955 50bf e8e5 113f
00000180: e3f4 263f ba62 b0bf ee78 303f 9700 963e
00000190: 748c a63f fe30 1c3e 3f76 19c0 9874 c5be
000001a0: fef2 f4bd 52a0 bdbe 95ef 2b3f 0459 b73d
000001b0: d483 37bf fd9e b0be 0543 c2be 3df5 1bc0
000001c0: 29b0 643f 4e9d d6bb 657b 91be 55b8 983e
000001d0: 0e5e 843f c3c6 883e 1c4a 863e 46b9 28c0
000001e0: edf4 8ebf d917 50bd 9c36 07be 09f7 63be
000001f0: 6a7c d1bf 643f e53d 6514 33c0 83ef 5a3f
00000200: f152 dbbf 6aef eabf 9608 283f 78e8 e33d
00000210: a125 71bf 9a6e 9cbe b701 e4be ab2c 2fbe
00000220: ab0b f9bf 7d9f 31bf aff7 69bf 6837 eabd
00000230: 1c4f d6bf 4a6c 683e 7fd4 293f 016b 8b3e
00000240: 047b b33f c6c7 423f 310e 2cc0 8c7e f03d
00000250: 506d 8d3f 597d 9d3e 4369 5dbf e03a 713e
00000260: 2bc0 42bf b707 053f c619 79c0 84fe 8ebe
00000270: cebc b1bf 837c 3abe cbd7 943e 06c4 3b3f
00000280: 1974 38c0 7644 0fc0 7a53 503f a2ca f4bd
00000290: 5340 3ac0 80ac b3bb 3c88 803e c5ab 32c0
000002a0: 9068 d9bf d499 6dbd 7a5f f6be 9e0c a7be
000002b0: 6ca5 bbbf 144c aabe 243b 8d3f ed37 31c0
-2.4086163 -1.7680073 -0.09426225 -0.19788279 -2.9580963 -0.030027658 0.69027996 -0.7341524
0.23337597 0.08314681 -2.2532148 0.17454937 -0.11583307 0.021719158 -1.9697847 1.1574085
-1.4054039 -2.1613963 -1.027904 -0.23260668 0.3987487 -0.13893227 0.28645596 0.7603762
0.019786488 0.9824745 -1.0687047 0.34744498 -0.32328635 -0.28251395 -0.6558796 -0.24812135
0.5162657 -0.32979187 -0.3615473 0.20813987 0.61899054 -0.061193943 0.17225167 -0.62086725
-0.96531236 0.18670827 0.115656756 -0.070739985 -1.6159024 -0.18267232 -0.7829216 -0.07441534
-0.881045 0.74162865 -1.2881316 0.073509544 -2.5003562 0.22732362 0.4711738 -0.3216107
0.91955817 0.10670361 0.3785942 -0.08707833 1.1543657 0.2814305 -2.5444357 -2.9609127
-2.1274693 1.3705692 0.012138369 -0.2025274 -3.3628938 0.18419334 -1.027076 -2.1249092
-0.12563178 0.098388284 -1.8819911 0.039725512 0.8981029 0.16210315 0.2876775 0.4856412
0.966573 0.1819949 -0.41744107 0.0038752854 0.6452229 -0.17990495 -2.8037934 0.13863479
0.53905565 -1.3127601 -0.16757898 0.16487268 0.45833465 0.03424114 -0.81380326 0.56991434
0.6521742 -1.3780129 0.68934524 0.29297325 1.3011613 0.15253064 -2.3978422 -0.38565516
-0.119604096 -0.37036377 0.6716245 0.08952525 -0.7168553 -0.34496298 -0.37941757 -2.4368432
0.893313 -0.006549514 -0.28414455 0.29828134 1.0341203 0.26714143 0.26228416 -2.6363082
-1.1168495 -0.050803993 -0.13204426 -0.22262205 -1.6366093 0.111937314 -2.7981198 0.85521716
-1.7134687 -1.8354313 0.656381 0.11128324 -0.9419804 -0.30553132 -0.44532558 -0.17106883
-1.9456686 -0.69383985 -0.9139356 -0.11436349 -1.6742892 0.22697559 0.6633987 0.27230075
1.4021916 0.7608608 -2.6883662 0.11742887 1.1048985 0.30759695 -0.8648874 0.23557615
-0.76074475 0.51964897 -3.892198 -0.27928555 -1.3885744 -0.1821156 0.29070887 0.73345983
-2.882086 -2.2385535 0.81377375 -0.11952712 -2.910176 -0.00548321 0.2510394 -2.791734
-1.6985035 -0.05800803 -0.48119718 -0.32626814 -1.4659858 -0.33261168 1.1033673 -2.7690384

l3.bias f4 [22]
00000000: c11f fcbe b8c0 aa3d fdb3 d8bd c92a aabe
00000010: 65fb 1dbf e9cb e9bd 5835 6abf dde6 0d3e
00000020: 17d8 933f bc3a 193f 74a9 0abe 0731 bdbe
00000030: 4d65 9e3d b7f0 023e 7a55 7bbe 2139 f53e
00000040: 8698 0a3f 3f83 00be 895a acbe 4d82 c6be
00000050: d66f cf3e 7792 073f
-0.49242976 0.083375394 -0.10581205 -0.33235767 -0.6171172 -0.11415846 -0.91487646 0.13857599
1.155032 0.59855247 -0.13541204 -0.36951467 0.07734165 0.12787138 -0.24544325 0.47895148
0.5413898 -0.12550066 -0.33662823 -0.38771287 0.40515012 0.5295786
