data.pth (torch, 10346 bytes, 6 tensors)

l1.weight f4 [8, 148]
00000000: 2e8a e73e 83b4 813e 5b03 153e ee71 9ebc
00000010: 5516 8cbe 68b3 8e3d e84a 513e 189d 8d3f
00000020: 13ef 31bf 2e87 4d3e 0f47 1f3e 8b51 b83e
00000030: 3216 15bf 7468 28bf 9823 1f3f 5999 833f
00000040: df6f 0f3f 72bd e2be cc5a 44be 8c2b 9d3f
00000050: 712a 353f 7ca8 ca3e dfa5 0cbf a6f9 0f3f
00000060: 6865 fabc f169 c33e 96eb ecbe ae20 f1be
00000070: 1d08 f23e b8a3 933e 8628 cf3e c6b1 f23e
00000080: 74b3 9b3e 97c1 f5bd c177 543f 15bf 3f3e
00000090: c0ec ff3d e543 6d3d 507e 5ebe 0a23 eb3d
000000a0: 4c90 d73e bf62 643e c77b 21be 26ad 61be
000000b0: 6e24 2fbf f277 ef3e 91fc c3bd 6926 343f
000000c0: 9538 393e bb8a cbbe e1c5 343e 3847 c2be
000000d0: db18 c0be 7a31 87be d326 61be ffc7 913e
000000e0: 260c 87be bb7e 1e3e 7e0b 5dbe 687e 093d
000000f0: e111 b93d eabb f73e c403 ebbe 7c4e 063f
00000100: be42 ed3e d919 1dbe e8a4 e13e bf02 4a3d
00000110: 2a9a d53e 1df1 4dbf f7d7 29bf b065 bd3e
00000120: 5383 953c 684f 223f c97d 2abf 1ec3 b5be
00000130: db28 aa3e b796 193f 5c23 d43e b29c 423f
00000140: 39af 4fbe 3997 07be 9d3d ecbe 6ced 18be
00000150: b378 223f bea5 f43e dbb1 d3be 4815 c0be
00000160: 9ffc 23bf 0a78 0ebf 3304 14bf c3f5 ddbe
00000170: 4989 56be 8753 073f 3364 213f a881 24bd
00000180: 8b51 6bbf 444f b63e 2b3a d8be d69b 0a3f
00000190: febe d23e 96be 523e 4db5 013f ba98 953e
000001a0: b385 7f3f f736 4dbe 71a0 3b3e abdf fd3e
000001b0: 6dd3 e23d 5c89 d43e 7b23 61bd c81d a2bf
000001c0: d534 1d3f 77f7 3b3e a38c 85be 2065 95bd
000001d0: a034 29bf 6a18 d6be 45e3 7bbe fc69 5b3f
000001e0: c1bd b03e 39f9 683e 1a3d 3e3f 07d4 4e3e
000001f0: 876c 1d3f 28bb 863e f1c3 35bd 1dcf 06bf
00000200: 5970 253e 925e dc3e ed07 68be 3666 8fbd
00000210: c715 4ebe 81ce 2e3e 2cb4 23bf c25e a53e
00000220: 39bd 34bf f90e 023f 2730 ca3d 3039 383e
00000230: 9239 273f 3e3d 92bd 052a d8be ebf4 0e3f
00000240: 4575 efb8 fbf1 58be 5cb1 80be a627 b0be
00000250: eec8 113e ff76 eb3c 923a f93e bec6 193f
00000260: 154e 493f 6140 913c 9d2e aa3d e77e 053f
00000270: 8bed 24bf 1c59 08bf c20c 49be 6ed5 253f
00000280: b00d fb3e 3303 da3e f165 1bbf 4076 4ebf
00000290: b5b5 2d3e 4e8d a5be 29f4 8b3e 4bea 99bf
000002a0: a41e 4f3e 6cb9 163f ceed 27be 34df 03be
000002b0: 430d bc3e dfe6 343e 4538 f3be 020d 3f3e
000002c0: 0c0e 453f 0414 313f 6510 263f b696 203f
000002d0: c5df 543f dbc6 ce3e 2691 f83e 9bba 023f
000002e0: 6d40 043f b939 0f3c 2d6d 1abd 5707 5b3f
000002f0: ecbd 973e a12b 873e 4f2c 7c3e dc01 9ebc
00000300: d3a0 88bf 8518 983d 758c 2cbf 47d6 453e
00000310: 87fe c03e 320e d7be 93e8 ac3d 8307 d7be
00000320: 600f d7be 0b41 95be ad08 383e 6d20 bc3d
00000330: 74f4 753e 7853 bb3e 4fcd 8fbd ffe3 303f
00000340: a8a8 b63d 38b2 c93c 9b2b ab3d 966a 863e
00000350: 41c7 453f 74bb 8dbd 1ab0 2b3e 8d6c b8be
00000360: e748 533e b674 2b3f 722b e63e 7a66 cbbe
00000370: db72 483c de42 6d3f 4848 903f 00c3 d23e
00000380: 5ad3 a93e 8c59 3e3f 69cc 143f d1a8 66be
00000390: 24c2 123f c6b7 fc3e 4eb7 023f 4b81 843f
000003a0: 5be7 2b3e 690b 2d3f 3fcb e9be 006a 763c
000003b0: 0a95 8d3f 06fa d93e 9fd2 c53e 3628 e33e
000003c0: eea9 3c3e 5b6e 37be 6dd0 37be e9b6 e93e
000003d0: 5de1 6f3f 2850 253f 2146 d23e 899e 2a3f
000003e0: ac5f eabe 2c8a 383f 33aa c7be 27fa 293f
000003f0: 8efd 99bf 4dd7 cb3e 146f 713e c9fb 113d
0.4522261 0.25333032 0.14552061 -0.019341435 -0.27360788 0.06967813 0.2043873 1.1063566
-0.69505423 0.20071098 0.1555445 0.35999712 -0.5823699 -0.6578438 0.62163687 1.0281173
0.56030077 -0.4428516 -0.19175261 1.2278914 0.70767885 0.39581668 -0.549406 0.5624031
-0.030565932 0.38166764 -0.46273488 -0.47095245 0.47271815 0.28835845 0.40460604 0.47401255
0.3041035 -0.11999815 0.8299523 0.18725236 0.12496328 0.057926077 -0.21727872 0.114812925
0.42102277 0.22303294 -0.15769874 -0.22038707 -0.6841496 0.467712 -0.095696576 0.7037111
0.1808799 -0.3975428 0.1765361 -0.3794496 -0.37518963 -0.26404935 -0.21987467 0.28472897
-0.26376456 0.15478031 -0.21586415 0.033567816 0.09036613 0.48385555 -0.4590131 0.5246351
0.46339983 -0.15341891 0.44071126 0.049319025 0.4171918 -0.80446035 -0.6634516 0.36991644
0.018251097 0.63402414 -0.6659818 -0.35500425 0.33234295 0.599956 0.41433227 0.7602035
-0.20281686 -0.1324128 -0.46140757 -0.1493432 0.6346542 0.477827 -0.4134663 -0.37516236
-0.64057344 -0.55651915 -0.5781891 -0.43351564 -0.20950808 0.5286183 0.63043517 -0.040162712
-0.919213 0.3560735 -0.4223188 0.54144037 0.4116134 0.20580515 0.5066727 0.29218084
0.99813384 -0.20040499 0.18322922 0.49584708 0.110754825 0.41511047 -0.054965477 -1.2665339
0.6140874 0.18356119 -0.2608386 -0.07294679 -0.66095924 -0.418155 -0.24598415 0.85708594
0.3451977 0.22751321 0.74311984 0.2019807 0.61493725 0.26314664 -0.044376317 -0.5265978
0.16156138 0.430409 -0.22659273 -0.07001917 -0.20125495 0.17070962 -0.63946795 0.32298857
-0.7060123 0.50804096 0.098724656 0.17990565 0.6532222 -0.07140587 -0.42219558 0.55842465
-0.00011418251 -0.21186058 -0.25135314 -0.3440525 0.14236805 0.028743265 0.48677498 0.6006888
0.7863477 0.017730894 0.08309672 0.5214676 -0.6442496 -0.5326097 -0.19633773 0.6477879
0.4903388 0.42580566 -0.60702425 -0.80649185 0.16963847 -0.3233437 0.27334717 -1.2024626
0.20226532 0.5887668 -0.16399309 -0.12878114 0.36728868 0.17666195 -0.47503868 0.18657306
0.7697456 0.69171166 0.64868766 0.62729967 0.83153945 0.4038609 0.4854824 0.5106599
0.51660806 0.0087417895 -0.037701774 0.85558075 0.29637086 0.26400474 0.24626277 -0.019287996
-1.067408 0.07426552 -0.6740182 0.19320022 0.3769419 -0.42003018 0.084427975 -0.41997918
-0.42003918 -0.29151186 0.1797206 0.09185872 0.24019033 0.3658712 -0.070215814 0.69097894
0.089188874 0.024621114 0.083579265 0.26253194 0.7725716 -0.069205195 0.16766396 -0.36020318
0.20633279 0.6697496 0.4495502 -0.3972662 0.012234415 0.92680156 1.1272058 0.41164398
0.3316906 0.7435539 0.58124405 -0.22525336 0.57327485 0.49358958 0.5106095 1.0351957
0.16787474 0.67595536 -0.45662877 0.015039921 1.1061108 0.42573565 0.38637254 0.44366616
0.18424198 -0.17913191 -0.17950602 0.45647362 0.9370325 0.64575434 0.4106913 0.66648155
-0.45776117 0.72085834 -0.3899704 0.6639733 -1.2030504 0.398127 0.23577529 0.03564051

l1.bias f4 [8]
00000000: e4d9 513f f912 d73e 4fb6 903f 1a18 393f
00000010: 0d16 6f3f 7f8f 663f 73fb 403f 9e9f 8e3f
0.819731 0.42006662 1.1305636 0.723024 0.9339302 0.9006271 0.7538368 1.1142461

l2.weight f4 [8, 8]
00000000: 1d39 413f ad37 303f 65d6 fe3c f339 043c
00000010: 267f af3f d9a5 38bf dcd4 eb3f 8f6a 7dbf
00000020: a08c 4ebf 4519 453f 32bb 943f bd2e 0440
00000030: 4320 7e3f 6bbe a8bf d72a c2bc 8765 87bd
00000040: d472 9dbf 685c 9f3f c0be 993e f4a0 81bf
00000050: 329f 1cbf 737c 59be a286 ef3f 4bdd f63f
00000060: cdcb e83f 4ec5 1ebf 83cb 463f ec86 cebf
00000070: 37f0 ec3f a01b e63f e9b7 24be 1cff ac3e
00000080: 2ecd 023f 06b5 283f 0e09 fd3e fce4 e93f
00000090: 5d11 18bf f357 bf3f f5cf 43bf 5f5c df3f
000000a0: a6ef 75bd 323d 153e 3f6e a43e 8313 1d3f
000000b0: 4953 edbf de4c 7b3f 2f36 b23f 803f 813f
000000c0: 7f86 9f3f 0d64 fe3f b14c abbf f711 d03f
000000d0: 9fc3 793f 7c08 8b3f edc8 843e 7995 d13b
000000e0: 8a0f 11be 40fa 02c0 6f2b 2040 cb33 b3be
000000f0: 60ca 073f 3854 353d b051 3d3f afef bb3f
0.7547777 0.68834955 0.03110809 0.008070457 1.3710678 -0.72128063 1.8424335 -0.9899072
-0.80683327 0.76991683 1.1619627 2.0653527 0.9926798 -1.3183111 -0.023702068 -0.06611162
-1.2300668 1.2450075 0.30028343 -1.0127244 -0.6118041 -0.2123888 1.8712962 1.9286283
1.8187195 -0.62019813 0.77654284 -1.6134925 1.8510808 1.797718 -0.16085781 0.33788383
0.5109433 0.6590122 0.4942097 1.8273005 -0.59401494 1.4948715 -0.7648919 1.7450064
-0.060043 0.14574125 0.3211536 0.613579 -1.8541042 0.98164165 1.3922786 1.0097504
1.246292 1.9874283 -1.3382779 1.6255482 0.9756412 1.0861964 0.25934544 0.0063959924
-0.14166084 -2.046524 2.502651 -0.35000452 0.53043175 0.04426977 0.7395277 1.4682521

l2.bias f4 [8]
00000000: 10de 583e e2cd 053f 1837 d13e 4967 7f3f
00000010: 04be 043f 8135 153f dbd5 213e 92d8 073f
0.2117846 0.5226728 0.40862346 0.99766976 0.5185244 0.58284765 0.15804236 0.53064835

l3.weight f4 [21, 8]
00000000: c927 4abf 0b14 efbf 744e e3bf 13d9 043f
00000010: fe97 d83e 39e5 72bf 4551 4b3e cda2 e83e
00000020: f378 b9bd dbb2 ee3d f1ae 1b3f 24c7 05bf
00000030: d438 3ebf 518b 17bb 4b6f 5fbf 6cbc d03e
00000040: 8ff0 df3e 931e 70bf ae44 e7bf 0d53 013f
00000050: 3a2b c4bf e0be a4bf 5f32 4dbd ad90 ee3e
00000060: caeb ae3e cbf2 d33e bc7e 90bc 1f49 88be
00000070: 012a 06c0 9822 55bf bc71 c0bd d221 5c3d
00000080: a3cb 0f3e cc75 8d3f 415d 20c0 8fc5 c6be
00000090: add4 25be 5e29 a1bf bdbb 063f 1274 9abf
000000a0: 8c00 2abf 1fa0 e23e 654d bcbf d238 edbe
000000b0: f340 2e3f 7d13 303f b672 da3e d2ca 26c0
000000c0: 9001 c6bf cc19 4e3f af75 e83d 3ebc c9bf
000000d0: 6490 b13e cb9d 9e3e 16e5 bcbf 5c72 183f
000000e0: 8a14 2bc0 492d 48be 8502 49bf cfbb 3bbd
000000f0: cf1f 253f 6014 3f3f 119f cc3e 5a74 acbe
00000100: 20e7 19c0 c1f8 37be b146 44bc daa9 433f
00000110: aad5 743e 2ddf 673e a94a d4bf 3c5b 283f
00000120: c1d8 0fbf d8d0 823d e01e 843e ab2a 09c0
00000130: 3150 8e3d 81dc 0c3f a217 c8bc d9b0 b63d
00000140: f4da 4a3f de2f 97be d6fe 59bf 6463 bd3e
00000150: 76ea a4bf 9e0a 8abf 2299 6e3e 384a 13c0
00000160: 56a0 3abf fd91 a5bf cedc 733f 8439 9ebf
00000170: 840a 23be 0d0a 003f 1368 813e 1188 87bf
00000180: 1d50 90bf 72e8 403f 8f86 1fbe ce85 8bbf
00000190: 2ca0 cc3e 11e5 42bf f5d9 573e b546 213e
000001a0: 92f5 ba3e 679d 173f 0792 263e f0b9 bbbf
000001b0: 736f d3be bb83 3bbe 40a1 873e 610a c5bf
000001c0: 333e 84bf 8849 debf e542 8a3e f633 933e
000001d0: 2e4d 413e 22ca 7d3e 26d7 d93e abc8 43bf
000001e0: cf53 2cbf c4fd 4dbf 10e5 9bbf 0530 ee3e
000001f0: dc6c 2d3f 75be c0bf 2042 4d3f 66ba 06c0
00000200: 18a6 113e 0295 cabe f4ac 7abf 76b2 adbd
00000210: 6c65 34be b6b0 fe3e ff5a 483e 42bb b5be
00000220: e76c f8bd b182 f6bf f76b aabd 17d8 ba3e
00000230: ec0b c1be 75ba 853e d1dd 2bbf ecd1 c03e
00000240: 2a5a 60bf 1e34 47bf bac8 553f 6d35 25bf
00000250: 6ba4 ebbd 5af8 5f3f 7745 02c0 e079 d53e
00000260: 30dd 4d3e bd17 e63e 8001 38bf 3575 183f
00000270: 361c f5bf 53a6 02bf cfa1 00c0 e397 203f
00000280: 9dc8 fbbe c077 113f 53f5 0cc0 2cba d03c
00000290: f615 6d3e 1fe6 c5bf 42b1 08bf e91e 403f
-0.7896696 -1.8677992 -1.7758317 0.5189373 0.4230346 -0.94881016 0.1985522 0.45436707
-0.09056272 0.11655208 0.60813814 -0.5225699 -0.7430546 -0.002312381 -0.87279195 0.40768754
0.4373822 -0.9379665 -1.8067834 0.5051735 -1.5325692 -1.287075 -0.050096866 0.46594754
0.34164268 0.41396174 -0.017638557 -0.26618287 -2.0963137 -0.8325591 -0.09396693 0.05374319
0.14042525 1.1051574 -2.5056918 -0.388226 -0.1619441 -1.2590749 0.52630216 -1.2066672
-0.66407084 0.44262788 -1.4711119 -0.46332413 0.68067855 0.68779737 0.42665642 -2.6061292
-1.5469227 0.8050811 0.11350571 -1.5760572 0.34680474 0.3097976 -1.4757411 0.595495
-2.6731286 -0.19548525 -0.7851947 -0.045833405 0.6450166 0.74640465 0.39965108 -0.3368252
-2.4047318 -0.17965986 -0.011979745 0.7643105 0.23909631 0.22643729 -1.6585284 0.6576421
-0.56190115 0.0638749 0.25804806 -2.1432292 0.06948889 0.5502396 -0.024425332 0.0892045
0.79240346 -0.29528707 -0.85154474 0.36989892 -1.2884052 -1.078449 0.23300603 -2.301405
-0.72900903 -1.2935177 0.95258796 -1.2361302 -0.1592198 0.50015336 0.25274715 -1.0588399
-1.1274449 0.75354683 -0.15578674 -1.0900209 0.3996595 -0.7613078 0.21079238 0.15749629
0.3651548 0.5922455 0.16266643 -1.4666119 -0.41295967 -0.1831197 0.2649021 -1.5393792
-1.0331482 -1.736619 0.2700416 0.2875058 0.18877098 0.24784139 0.42546958 -0.7647807
-0.6731538 -0.8046534 -1.2179279 0.4652101 0.6774423 -1.5058123 0.80179024 -2.1051269
0.14223516 -0.3956681 -0.97920156 -0.08481304 -0.17616814 0.49744195 0.19565962 -0.3549443
-0.121301465 -1.9258634 -0.08321374 0.36492988 -0.37704408 0.26118818 -0.6713534 0.37660158
-0.8763758 -0.778139 0.8350941 -0.64534646 -0.115059696 0.8748833 -2.0354898 0.41694546
0.20103908 0.44939986 -0.7187729 0.59553844 -1.9149234 -0.5103504 -2.009876 0.6273176
-0.49176493 0.5682335 -2.2024734 0.025479399 0.23152909 -1.5460852 -0.53395474 0.75047165

l3.bias f4 [21]
00000000: ebfb 973d 3e29 f3be 8534 973e abcf 94bd
00000010: ac6b 2c3d a58c d33e 76ff 9fbd 1453 273e
00000020: b2b9 b83e 2df3 e1be 8845 aa3e 6c18 f73c
00000030: fa72 bebd d025 fabd ddc8 bfbd ad92 1ebe
00000040: 574b 8e3e 2c57 2dbe 44d7 20be c5e4 5d3e
00000050: 698e f23e
0.074210964 -0.47492403 0.29532257 -0.07266172 0.04209487 0.4131824 -0.07812397 0.16340286
0.36079174 -0.4413084 0.33256173 0.030163012 -0.09299274 -0.122142434 -0.093644835 -0.1548564
0.27791855 -0.16927785 -0.15707117 0.216693 0.47374275
